nc: 4

anchors:
  - [ 43.0, 28.0, 52.0, 44.0, 67.0, 67.0 ]
  - [ 72.0, 71.0, 82.0, 90.0, 103.0, 128.0 ]
  - [ 117.0, 143.0, 151.0, 175.0, 162.0, 213.0 ]

backbone: [
  [ -1,1,Conv,[ 32,1,2,None,1,nn.LeakyReLU(0.1) ] ],
  [ -1,1,Conv,[ 64,3,2,None,1,nn.LeakyReLU(0.1) ] ],
  [ -1,1,Conv,[ 32,3,1,None,1,nn.LeakyReLU(0.1) ] ],
  [ -1,1,Conv,[ 32,3,1,None,1,nn.LeakyReLU(0.1) ] ],
  [ -1,1,Conv,[ 32,1,1,None,1,nn.LeakyReLU(0.1) ] ],
  [ -1,1,Conv,[ 32,3,1,None,1,nn.LeakyReLU(0.1) ] ],
  [ -1,1,Conv,[ 32,3,1,None,1,nn.LeakyReLU(0.1) ] ],
  [ -1,1,Conv,[ 32,3,1,None,1,nn.LeakyReLU(0.1) ] ],
  [ -1,1,Conv,[ 32,1,1,None,1,nn.LeakyReLU(0.1) ] ],
  [ -1,1,Conv,[ 32,3,1,None,1,nn.LeakyReLU(0.1) ] ],
  [ -1,1,Conv,[ 32,3,1,None,1,nn.LeakyReLU(0.1) ] ],
  [ -1,1,Conv,[ 32,3,1,None,1,nn.LeakyReLU(0.1) ] ],
  [ [ -1,-2,-3 ],1,Concat,1 ],
  [ -1,1,Conv,[ 64,3,2,None,1,nn.LeakyReLU(0.1) ] ], # 13 P - 2
  [ -1,1,Conv,[ 64,3,1,None,1,nn.LeakyReLU(0.1) ] ],
  [ -1,1,Conv,[ 64,1,1,None,1,nn.LeakyReLU(0.1) ] ],
  [ -1,1,Conv,[ 64,1,1,None,1,nn.LeakyReLU(0.1) ] ],
  [ -1,1,Conv,[ 64,1,1,None,1,nn.LeakyReLU(0.1) ] ],
  [ -1,1,Conv,[ 64,1,1,None,1,nn.LeakyReLU(0.1) ] ],
  [ -1,1,Conv,[ 64,3,1,None,1,nn.LeakyReLU(0.1) ] ],
  [ -1,1,Conv,[ 64,3,1,None,1,nn.LeakyReLU(0.1) ] ],
  [ -1,1,Conv,[ 64,3,1,None,1,nn.LeakyReLU(0.1) ] ],
  [ -1,1,Conv,[ 64,3,1,None,1,nn.LeakyReLU(0.1) ] ],
  [ -1,1,Conv,[ 64,1,1,None,1,nn.LeakyReLU(0.1) ] ],
  [ -1,1,Conv,[ 64,1,1,None,1,nn.LeakyReLU(0.1) ] ],
  [ -1,1,Conv,[ 64,1,1,None,1,nn.LeakyReLU(0.1) ] ],
  [ -1,1,Conv,[ 64,3,2,None,1,nn.LeakyReLU(0.1) ] ], # 27 P - 4
  [ -1,1,Conv,[ 128,1,1,None,1,nn.LeakyReLU(0.1) ] ],
  [ -1,1,Conv,[ 128,1,1,None,1,nn.LeakyReLU(0.1) ] ],
  [ -1,1,Conv,[ 128,1,1,None,1,nn.LeakyReLU(0.1) ] ],
  [ -1,1,Conv,[ 128,3,2,None,1,nn.LeakyReLU(0.1) ] ], # 31 P - 8
  [ -1,1,Conv,[ 128,3,1,None,1,nn.LeakyReLU(0.1) ] ],
  [ -1,1,Conv,[ 128,3,1,None,1,nn.LeakyReLU(0.1) ] ],
  [ -1,1,Conv,[ 128,3,1,None,1,nn.LeakyReLU(0.1) ] ],
  [ [ -1,-2,-3,-4 ],1,Concat,1 ],
  [ -1,1,Conv,[ 128,1,1,None,1,nn.LeakyReLU(0.1) ] ],
  [ -1,1,Conv,[ 128,1,1,None,1,nn.LeakyReLU(0.1) ] ],
  [ -1,1,Conv,[ 128,3,1,None,1,nn.LeakyReLU(0.1) ] ],
  [ -1,1,Conv,[ 128,3,2,None,1,nn.LeakyReLU(0.1) ] ], # 39 P - 16
  [ -1,1,Conv,[ 128,1,1,None,1,nn.LeakyReLU(0.1) ] ],
  [ -1,1,Conv,[ 128,1,1,None,1,nn.LeakyReLU(0.1) ] ],
  [ -1,1,Conv,[ 128,3,1,None,1,nn.LeakyReLU(0.1) ] ],
  [ -1,1,Conv,[ 128,3,1,None,1,nn.LeakyReLU(0.1) ] ],
  [ -1,1,Conv,[ 128,3,1,None,1,nn.LeakyReLU(0.1) ] ],
  [ -1,1,Conv,[ 128,3,2,None,1,nn.LeakyReLU(0.1) ] ], # 45 P - 32
  [ -1,1,Conv,[ 128,1,1,None,1,nn.LeakyReLU(0.1) ] ],
  [ -1,1,Conv,[ 128,3,1,None,1,nn.LeakyReLU(0.1) ] ],
  [ -1,1,Conv,[ 128,3,1,None,1,nn.LeakyReLU(0.1) ] ],
  [ -1,1,Conv,[ 128,1,1,None,1,nn.LeakyReLU(0.1) ] ],
  [ [ -1,-2,-3,-4 ],1,Concat,1 ],
  [ -1,1,Conv,[ 128,1,1,None,1,nn.LeakyReLU(0.1) ] ],
  [ -1,1,Conv,[ 128,1,1,None,1,nn.LeakyReLU(0.1) ] ],
  [ -1,1,Conv,[ 128,1,1,None,1,nn.LeakyReLU(0.1) ] ],
  [ -1,1,Conv,[ 128,1,1,None,1,nn.LeakyReLU(0.1) ] ],
  [ -1,1,Conv,[ 128,3,2,None,1,nn.LeakyReLU(0.1) ] ], # 56 P - 64
  [ -1,1,Conv,[ 256,3,1,None,1,nn.LeakyReLU(0.1) ] ],
  [ -1,1,Conv,[ 256,3,1,None,1,nn.LeakyReLU(0.1) ] ],
  [ -1,1,Conv,[ 256,3,1,None,1,nn.LeakyReLU(0.1) ] ],
  [ -1,1,Conv,[ 256,3,1,None,1,nn.LeakyReLU(0.1) ] ],
  [ [ -1,-2,-3,-4 ],1,Concat,1 ],

]

head: [
  [ -1,1,SP,[ ] ],
  [ -1,1,SP,[ ] ],
  [ -1,1,SP,[ ] ],

  [ -1,1,Conv,[ 512,1,1,None,1,nn.LeakyReLU(0.1) ] ],
  [ -1,1,Conv,[ 256,1,1,None,1,nn.LeakyReLU(0.1) ] ],
  [ -1,1,Conv,[ 256,1,1,None,1,nn.LeakyReLU(0.1) ] ],
  [ -1,1,Conv,[ 128,1,1,None,1,nn.LeakyReLU(0.1) ] ],
  [ -1,1,Conv,[ 128,3,1,None,1,nn.LeakyReLU(0.1) ] ],
  [ -1,1,Conv,[ 128,3,1,None,1,nn.LeakyReLU(0.1) ] ],

  [ -1,1,UpSample,[ 2,"'nearest'" ] ], # P - 32
  [ [ -1,53,52,51 ],1,Concat,1 ],

  [ -1,1,Conv,[ 128,1,1,None,1,nn.LeakyReLU(0.1) ] ],
  [ -1,1,Conv,[ 128,1,1,None,1,nn.LeakyReLU(0.1) ] ],
  [ -1,1,Conv,[ 128,1,1,None,1,nn.LeakyReLU(0.1) ] ],
  [ -1,1,Conv,[ 128,3,1,None,1,nn.LeakyReLU(0.1) ] ],
  [ -1,1,Conv,[ 128,3,1,None,1,nn.LeakyReLU(0.1) ] ],
  [ -1,1,Conv,[ 128,3,1,None,1,nn.LeakyReLU(0.1) ] ],

  [ -1,1,UpSample,[ 2,"'nearest'" ] ], # P - 16
  [ [ -1,43,42 ],1,Concat,1 ],

  [ -1,1,Conv,[ 256,1,1,None,1,nn.LeakyReLU(0.1) ] ],
  [ -1,1,Conv,[ 256,1,1,None,1,nn.LeakyReLU(0.1) ] ],
  [ -1,1,Conv,[ 256,1,1,None,1,nn.LeakyReLU(0.1) ] ],
  [ -1,1,Conv,[ 256,3,1,None,1,nn.LeakyReLU(0.1) ] ],
  [ -1,1,Conv,[ 256,3,1,None,1,nn.LeakyReLU(0.1) ] ],
  [ -1,1,Conv,[ 128,3,1,None,1,nn.LeakyReLU(0.1) ] ],


  [ -1,1,UpSample,[ 2,"'nearest'" ] ], # P - 8
  [ [ -1,31,30 ],1,Concat,1 ],

  [ -1,1,Conv,[ 128,1,1,None,1,nn.LeakyReLU(0.1) ] ],
  [ -1,1,Conv,[ 128,1,1,None,1,nn.LeakyReLU(0.1) ] ],
  [ -1,1,Conv,[ 128,1,1,None,1,nn.LeakyReLU(0.1) ] ],
  [ -1,1,Conv,[ 128,3,1,None,1,nn.LeakyReLU(0.1) ] ],
  [ -1,1,Conv,[ 128,3,1,None,1,nn.LeakyReLU(0.1) ] ],
  [ -1,1,Conv,[ 128,3,1,None,1,nn.LeakyReLU(0.1) ] ],

  [ -1,1,Conv,[ 128,3,1,None,1,nn.LeakyReLU(0.1) ] ],
  [ -10,1,Conv,[ 128,3,1,None,1,nn.LeakyReLU(0.1) ] ],
  [ -19,1,Conv,[ 128,3,1,None,1,nn.LeakyReLU(0.1) ] ],

  [ [ -1,-2,-3 ],1,Detect,[ nc,anchors,[ 128,128,128 ] ] ]
]