nc: 4

anchors:
  - [ 43.0, 28.0, 52.0, 44.0, 67.0, 67.0 ]
  - [ 72.0, 71.0, 82.0, 90.0, 103.0, 128.0 ]
  - [ 117.0, 143.0, 151.0, 175.0, 162.0, 213.0 ]

backbone: [
  [ -1, 1, Conv, [ 32, 3, 2, None, 1, nn.LeakyReLU(0.1) ] ],  # 0-P1/2

  [ -1, 1, Conv, [ 64, 3, 2, None, 1, nn.LeakyReLU(0.1) ] ],  # 1-P2/4

  [ -1,1,Conv,[ 32,1,1,None,1,nn.LeakyReLU(0.1) ] ], # 1
  [ -1,1,Conv,[ 32,1,1,None,1,nn.LeakyReLU(0.1) ] ], # 1
  [ -1,1,Conv,[ 32,1,1,None,1,nn.LeakyReLU(0.1) ] ], # 1
  [ -1,1,Conv,[ 32,3,1,None,1,nn.LeakyReLU(0.1) ] ], # 1
  [ -1,1,Conv,[ 32,3,1,None,1,nn.LeakyReLU(0.1) ] ], # 1
  [ [ -1,-2,-3,-4 ],1,Concat,[ ] ]
]

head: [


  [ [ -1,-2,-3 ],1,Detect,[ nc,anchors,[ 348,512,728 ] ] ]  # 64
]