nc: 4

anchors:
  - [ 10,13, 16,30, 33,23 ]
  - [ 30,61, 62,45, 59,119 ]
  - [ 116,90, 156,198, 373,326 ]

backbone: [
  [ -1,1,Conv,[ 32,3,2,None,1,nn.LeakyReLU(0.1) ] ], # 0 P1/2
  [ -1,1,Conv,[ 64,3,2,None,1,nn.LeakyReLU(0.1) ] ], # 1 P1/4
  [ -1,1,Conv,[ 32,1,1,None,1,nn.LeakyReLU(0.1) ] ], # 2
  [ -1,1,Conv,[ 32,1,1,None,1,nn.LeakyReLU(0.1) ] ], # 3
  [ -1,1,Conv,[ 32,1,1,None,1,nn.LeakyReLU(0.1) ] ], # 4
  [ -1,1,Conv,[ 32,1,1,None,1,nn.LeakyReLU(0.1) ] ], # 5
  [ -1,1,Conv,[ 32,3,1,None,1,nn.LeakyReLU(0.1) ] ], # 6
  [ -1,1,Conv,[ 32,3,1,None,1,nn.LeakyReLU(0.1) ] ], # 7
  [ -1,1,Conv,[ 32,3,1,None,1,nn.LeakyReLU(0.1) ] ], # 8
  [ -1,1,Conv,[ 32,3,1,None,1,nn.LeakyReLU(0.1) ] ], # 9
  [ [ -1,-2,-3,-4 ],1,Concat,1 ], # 10
  [ -1,1,MP,[ ] ], # 11
  [ -1,1,Conv,[ 64,1,1,None,1,nn.LeakyReLU(0.1) ] ], # 12
  [ -1,1,Conv,[ 64,1,1,None,1,nn.LeakyReLU(0.1) ] ], # 13
  [ -1,1,Conv,[ 64,1,1,None,1,nn.LeakyReLU(0.1) ] ], # 14
  [ -1,1,Conv,[ 64,1,1,None,1,nn.LeakyReLU(0.1) ] ], # 15
  [ -1,1,Conv,[ 64,3,1,None,1,nn.LeakyReLU(0.1) ] ], # 16
  [ -1,1,Conv,[ 64,3,1,None,1,nn.LeakyReLU(0.1) ] ], # 17
  [ -1,1,Conv,[ 64,3,1,None,1,nn.LeakyReLU(0.1) ] ], # 18
  [ -1,1,Conv,[ 64,3,1,None,1,nn.LeakyReLU(0.1) ] ], # 19
  [ [ -1,-2,-3,-4 ],1,Concat,1 ], # 20
  [ -1,1,Conv,[ 128,1,1,None,1,nn.LeakyReLU(0.1) ] ], # 21
  [ -1,1,Conv,[ 128,1,1,None,1,nn.LeakyReLU(0.1) ] ], # 22
  [ -1,1,Conv,[ 128,1,1,None,1,nn.LeakyReLU(0.1) ] ], # 23
  [ -1,1,Conv,[ 128,1,1,None,1,nn.LeakyReLU(0.1) ] ], # 24
  [ -1,1,Conv,[ 128,1,1,None,1,nn.LeakyReLU(0.1) ] ], # 25
  [ -1,1,Conv,[ 128,3,1,None,1,nn.LeakyReLU(0.1) ] ], # 26
  [ -1,1,Conv,[ 256,3,1,None,1,nn.LeakyReLU(0.1) ] ], # 27
  [ -1,1,Conv,[ 256,3,1,None,1,nn.LeakyReLU(0.1) ] ], # 28
  [ -1,1,Conv,[ 512,3,1,None,1,nn.LeakyReLU(0.1) ] ], # 29
  [ -1,1,MP,[ ] ], # 30
  [ -1,1,Conv,[ 256,1,1,None,1,nn.LeakyReLU(0.1) ] ], # 31
  [ -1,1,Conv,[ 256,1,1,None,1,nn.LeakyReLU(0.1) ] ], # 32
  [ -1,1,Conv,[ 256,1,1,None,1,nn.LeakyReLU(0.1) ] ], # 33
  [ -1,1,Conv,[ 256,1,1,None,1,nn.LeakyReLU(0.1) ] ], # 34
  [ -1,1,Conv,[ 256,1,1,None,1,nn.LeakyReLU(0.1) ] ], # 35
  [ -1,1,Conv,[ 256,3,1,None,1,nn.LeakyReLU(0.1) ] ], # 36
  [ -1,1,Conv,[ 256,3,1,None,1,nn.LeakyReLU(0.1) ] ], # 37
  [ -1,1,Conv,[ 256,3,1,None,1,nn.LeakyReLU(0.1) ] ], # 38
  [ -1,1,Conv,[ 256,3,1,None,1,nn.LeakyReLU(0.1) ] ], # 39
  [ -1,1,Conv,[ 384,3,1,None,1,nn.LeakyReLU(0.1) ] ], # 40
  [ -1,1,MP,[ ] ], # 41
  [ -1,1,Conv,[ 256,1,1,None,1,nn.LeakyReLU(0.1) ] ], # 31
  [ -1,1,Conv,[ 256,1,1,None,1,nn.LeakyReLU(0.1) ] ], # 32
  [ -1,1,Conv,[ 256,1,1,None,1,nn.LeakyReLU(0.1) ] ], # 33
  [ -1,1,Conv,[ 256,1,1,None,1,nn.LeakyReLU(0.1) ] ], # 34
  [ -1,1,Conv,[ 256,1,1,None,1,nn.LeakyReLU(0.1) ] ], # 35
  [ -1,1,Conv,[ 256,3,1,None,1,nn.LeakyReLU(0.1) ] ], # 36
  [ -1,1,Conv,[ 256,3,1,None,1,nn.LeakyReLU(0.1) ] ], # 37
  [ -1,1,Conv,[ 256,3,1,None,1,nn.LeakyReLU(0.1) ] ], # 38
  [ -1,1,Conv,[ 256,3,1,None,1,nn.LeakyReLU(0.1) ] ], # 39
  [ -1,1,Conv,[ 256,3,1,None,1,nn.LeakyReLU(0.1) ] ], # 40
  [ -1,1,Conv,[ 512,1,1,None,1,nn.LeakyReLU(0.1) ] ], # 41
  [ -1,1,Conv,[ 512,1,1,None,1,nn.LeakyReLU(0.1) ] ], # 42
  [ -1,1,Conv,[ 512,1,1,None,1,nn.LeakyReLU(0.1) ] ], # 43
  [ -1,1,Conv,[ 512,3,1,None,1,nn.LeakyReLU(0.1) ] ], # 44
  [ -1,1,Conv,[ 512,3,1,None,1,nn.LeakyReLU(0.1) ] ], # 45
  [ -1,1,Conv,[ 256,3,1,None,1,nn.LeakyReLU(0.1) ] ], # 46
  [ -1,1,Conv,[ 256,3,1,None,1,nn.LeakyReLU(0.1) ] ], # 47
  [ -1,1,Conv,[ 256,3,1,None,1,nn.LeakyReLU(0.1) ] ], # 48
  [ -1,1,Conv,[ 256,3,1,None,1,nn.LeakyReLU(0.1) ] ], # 49
  [ -1,1,Conv,[ 256,3,1,None,1,nn.LeakyReLU(0.1) ] ], # 50
  [ [ -1,-2,-3 ],1,Concat,1 ] # 51
]

head: [
  [ -1,1,Conv,[ 512,1,1,None,1,nn.LeakyReLU(0.1) ] ], # 52
  [ -1,1,Conv,[ 512,1,1,None,1,nn.LeakyReLU(0.1) ] ], # 53
  [ -1,1,Conv,[ 512,3,1,None,1,nn.LeakyReLU(0.1) ] ], # 54
  [ -1,1,Conv,[ 512,3,1,None,1,nn.LeakyReLU(0.1) ] ], # 55
  [ -1,1,Conv,[ 256,3,1,None,1,nn.LeakyReLU(0.1) ] ], # 56
  [ -1,1,Conv,[ 256,3,1,None,1,nn.LeakyReLU(0.1) ] ], # 57
  [ -1,1,Conv,[ 256,3,1,None,1,nn.LeakyReLU(0.1) ] ], # 58
  [ -1,1,Conv,[ 256,3,1,None,1,nn.LeakyReLU(0.1) ] ], # 59
  [ -1,1,Conv,[ 256,3,1,None,1,nn.LeakyReLU(0.1) ] ], # 60
  [ -1,1,Conv,[ 384,3,1,None,1,nn.LeakyReLU(0.1) ] ], # 61
  [ 40,1,Conv,[ 512,3,1,None,1,nn.LeakyReLU(0.1) ] ],  # 62
  [ 29,1,Conv,[ 728,3,1,None,1,nn.LeakyReLU(0.1) ] ],  # 63

  [ [ -1,-2,-3 ],1,Detect,[ nc,anchors,[ 728,512,384 ] ] ]  # 64
]